weight_checkpoint_2020-2-3_0-56-11_SWJKskT6l76XGbuvvyxZ.pt (torch_old, 6707 bytes, 20 tensors)

net.0.linear.weight f4 [9, 3]
000000 62 80 e0 3e 1a bb fb be 1e 06 4c 3e e6 61 3b bc
       0.43847948 -0.49166185 0.19924209 -0.011436915
000010 c1 31 d1 bf d5 2d 9d 3e 0b 09 b1 be a4 e5 36 bf
       -1.6343309 0.3069903 -0.34577212 -0.71444154
000020 2f 1a cc 3e af 0e b0 3f 18 4e a9 3f e5 86 c0 3e
       0.39863726 1.3754481 1.3226957 0.37602916
000030 72 06 e5 be 88 a9 11 40 1c 3b 6b 3c 30 7b 3f be
       -0.4473148 2.2759724 0.0143573545 -0.18699336
000040 d9 26 34 3e 85 f3 0f bf 44 5f 76 bf da 4e 9e 3d
       0.17592944 -0.56230956 -0.96239114 0.077298835
000050 9a b4 a9 be 7f 90 a9 3e 3a 28 1a 3f 06 e7 33 3f
       -0.331456 0.33118054 0.6021763 0.7027439
000060 e6 4c 81 3f b8 15 16 bf 43 1d 3e bf
       1.0101593 -0.5862689 -0.742634

net.0.linear.bias f4 [9]
000000 b0 ee 05 3e 1d 21 1b 3e 19 91 01 3f 1c 4c e8 3e
       0.13079333 0.1514935 0.50612026 0.45370567
000010 6a 81 bb be e2 21 e1 3e ca 29 cd bd 34 66 2c be
       -0.36622173 0.43971163 -0.10017736 -0.16835862
000020 32 ea 12 bf
       -0.57388604

net.0.batch_norm.weight f4 [9]
000000 3f 3e 72 3f d6 5e 75 3f d7 da 59 3f 77 9c 54 3f
       0.9462623 0.95847833 0.8509955 0.83051246
000010 de 39 72 3f 16 f7 7c 3f 0d e4 6a 3f 6b eb 98 3f
       0.9461955 0.98814523 0.9175423 1.1946844
000020 b7 1c 7c 3f
       0.98481315

net.0.batch_norm.bias f4 [9]
000000 3a 7f 51 3c 0d cf 41 bd f7 d1 d6 3c 35 b8 93 bd
       0.012786681 -0.0473166 0.026223166 -0.07212869
000010 92 3a 14 bb 1f 76 f2 3d aa 32 2f bd 9f d3 1a 3d
       -0.0022617918 0.11838936 -0.042772926 0.037799474
000020 87 79 0c 3e
       0.13718234

net.0.batch_norm.running_mean f4 [9]
000000 4f 59 73 3e da 15 02 3f 1b 77 0e 3f 68 81 36 3f
       0.23764537 0.5081459 0.5565049 0.7129121
000010 cd 33 d1 3e 60 61 e9 3e bd c3 4d 3e 6d ad 22 3e
       0.40859833 0.45582104 0.200942 0.15886469
000020 4a 60 f5 3d
       0.11981256

net.0.batch_norm.running_var f4 [9]
000000 82 72 9b 3d 2e a8 b9 3e a1 bc 51 3e 51 1f 28 3f
       0.075902 0.36261123 0.20482112 0.65672785
000010 cf e1 c1 3e f4 ea db 3d 5b 7e ae 3d 38 ba 9c 3d
       0.3786759 0.10738173 0.08520194 0.07652706
000020 1c bb 8f 3d
       0.0701811

net.1.linear.weight f4 [15, 9]
000000 be 6d e0 be 03 5d 93 be ca 4c 22 3f a4 38 66 be
       -0.43833727 -0.287819 0.6339842 -0.22482544
000010 0b 16 b6 3d e9 de 09 be a5 37 75 3e d0 6f 76 3f
       0.08890923 -0.1346394 0.23947008 0.9626436
000020 ba 8f 08 be 32 f4 9e bc b0 22 52 3d 65 e5 85 be
       -0.13336077 -0.01940355 0.05130261 -0.26151577
000030 c5 5b c4 bd 73 b1 9d be 42 70 26 3f 73 ad ad 3d
       -0.09587816 -0.30799446 0.6501504 0.084803484
000040 73 53 0c bf 82 59 f0 3d 19 ec ff be 0f fc c4 bd
       -0.54814833 0.11735822 -0.49984816 -0.09618389
000050 a3 b8 b7 bc 4d 7b 1f 3f a6 e9 ba be 22 27 8f 3e
       -0.022426909 0.6229752 -0.36506385 0.27959543
000060 24 68 b9 3b e4 3d dc 3e 6c af fd 3e 12 07 e5 be
       0.0056581665 0.4301597 0.495479 -0.44731957
000070 b8 8e 7a 3e ba 29 c1 3c ec f3 1a bd f6 58 b7 be
       0.24468505 0.023579467 -0.03783028 -0.3581006
000080 43 45 cb 3e 1b 73 20 bf b5 e9 08 bf 2f b9 1c 3e
       0.3970128 -0.62675637 -0.5348161 0.15305017
000090 a2 50 33 3e 7f eb 54 3d 99 b8 39 bf 1e 27 9e bd
       0.17511228 0.0519824 -0.725473 -0.07722305
0000a0 1d 23 47 bd 0f da d9 bb 36 3a 1e 3f dd 3c 24 bf
       -0.04861747 -0.006648309 0.6180757 -0.6415537
0000b0 93 1c 03 bf 65 64 d9 be 53 82 8a 3c 6b 08 63 be
       -0.51215476 -0.42459407 0.016907847 -0.2217118
0000c0 c3 17 55 3e e7 29 37 bf c2 39 a0 bf c0 c2 cc 3e
       0.20809846 -0.7154831 -1.2517626 0.39992332
0000d0 47 d3 c6 be 86 25 a1 bd 49 bb ab bd 64 cb 15 3f
       -0.38833067 -0.07868485 -0.08385331 0.58513474
0000e0 e7 ad 81 3e ce 5e eb 3e 5c 08 43 bf 1e e1 e9 3e
       0.2532799 0.45970768 -0.7618463 0.45679563
0000f0 6a 5a 95 3e 19 34 27 be 38 f2 72 3f b0 73 97 be
       0.29170543 -0.16328467 0.94900846 -0.2958045
000100 40 44 4b 3f c1 fb 04 3f fe f6 d4 bd a5 a5 18 bf
       0.79401016 0.51946646 -0.103986725 -0.59627753
000110 30 4e e3 be 41 a9 15 bf 07 ab 51 bc d5 0e 52 3e
       -0.4439559 -0.58461386 -0.012797124 0.2051347
000120 6c 0d 2f 3c bb 4c 49 bf 4b c3 a7 bd ec 21 7e be
       0.010684352 -0.78632706 -0.08191546 -0.24817628
000130 49 75 0b 3f 9f 3a 80 be 14 54 f3 be 4b d3 bd be
       0.5447584 -0.25044724 -0.47525084 -0.37075266
000140 cf 94 60 3c 9d ec 56 bd 1d 0c 8c be 3d 59 38 bd
       0.013707354 -0.052471746 -0.27352992 -0.04500698
000150 65 94 bd 3d f8 35 85 3f 4d b6 8a 3f 33 a1 36 3f
       0.0925682 1.0407095 1.0836884 0.7133972
000160 0a 9c 67 bf b8 cd fd be f5 a2 f8 be 08 28 45 be
       -0.9047247 -0.49571013 -0.48561826 -0.19253552
000170 06 45 15 3e 7a c3 2b be 9b 8e 4e be 63 4c 81 be
       0.14577112 -0.16773787 -0.20171587 -0.2525359
000180 ba 58 14 3f dd ce 0b bf 49 f5 12 bf 67 04 a9 bc
       0.57947886 -0.54612523 -0.57405525 -0.020631982
000190 bc d9 0e bd 5e d1 52 bc 9b a5 b5 be 3d 8f a4 be
       -0.034875616 -0.0128673 -0.3547791 -0.32140532
0001a0 79 ea 21 3e 5f 1c ec bd 78 4f 19 3f 1e 11 62 3e
       0.158121 -0.11528849 0.59886885 0.22076842
0001b0 ad 82 8e 3e 59 7b b1 be 3d 0c 23 be 9c 32 ef bd
       0.27834073 -0.3466442 -0.15922637 -0.11679575
0001c0 71 66 c6 3e 73 3b ef bd 23 b2 25 3f 33 f6 95 be
       0.38750032 -0.11681261 0.6472494 -0.29289398
0001d0 88 21 cb be 3c 52 1a bf 6f c7 2d 3f 8e df 47 3f
       -0.3967402 -0.6028173 0.67882437 0.7807549
0001e0 48 5e 1d bb 69 65 a0 3f 64 fd e4 bc dd 9b 9b bd
       -0.0024012495 1.2530948 -0.027952857 -0.07598088
0001f0 9d fb 7a 3e 9e bc aa be 74 78 57 bf 58 80 51 3f
       0.24510045 -0.33347028 -0.8416817 0.8183646
000200 2f 7b e2 3e 51 8c cb 3e 78 7b 02 3e 29 09 16 3e
       0.44234607 0.3975549 0.12742412 0.14651932
000210 ae c9 4a 3f 00 ed c3 be 4d 4e fd be
       0.7921399 -0.38266754 -0.494738

net.1.linear.bias f4 [15]
000000 bd 10 88 bd e5 cf c2 3e 4e d1 5e bd 5e 30 d9 3e
       -0.066438176 0.38049236 -0.054398827 0.42419714
000010 04 c6 27 3e f1 6a 82 be dd f7 7d 3e b5 9e 07 be
       0.1638413 -0.25472215 0.24801584 -0.13244136
000020 b9 41 4e 3e 2e f4 24 bc e8 c6 b0 3e 66 e2 62 3e
       0.20142259 -0.010067983 0.34526753 0.22156677
000030 cb b2 1a 3e 1d 02 7e be 65 6a 94 3d
       0.15107267 -0.24805494 0.07246856

net.1.batch_norm.weight f4 [15]
000000 94 9b 9a 3f cc 32 98 3f b5 ef 6d 3f 05 54 95 3f
       1.2078729 1.1890502 0.9294389 1.1666266
000010 52 28 7d 3f dc 06 52 3f 01 4d 88 3f d9 2e 7d 3f
       0.9888965 0.82041717 1.06485 0.9889961
000020 48 8d 56 3f f7 a9 84 3f b8 bd 5f 3f 80 54 54 3f
       0.8380933 1.0364369 0.8739886 0.82941437
000030 99 d6 64 3f 3d 5b 7b 3f fa 92 7d 3f
       0.8938995 0.98186094 0.99052393

net.1.batch_norm.bias f4 [15]
000000 09 2c 23 be 27 95 a9 3c 3a f2 37 bd 3d ee eb 3c
       -0.15934767 0.020701004 -0.04490874 0.028800124
000010 67 4b b1 bd 3a 36 19 3d 5a 0e d1 3d 68 b3 e8 bc
       -0.0865696 0.03740523 0.102078155 -0.02840586
000020 d8 1f b6 bd d2 f6 e9 3d 8a a4 9a 3d b4 f4 86 bd
       -0.088927925 0.1142403 0.075509146 -0.06589642
000030 c7 e5 f6 bb 19 4d eb bd 9f 6a be bd
       -0.007534716 -0.114893146 -0.0929768

net.1.batch_norm.running_mean f4 [15]
000000 c2 cb 09 3f 17 cc 4f 3f 4d 0b e4 3e 35 b1 44 3f
       0.53826535 0.8117079 0.44539872 0.76832896
000010 99 df e9 3e 00 3f 86 3e 17 b0 59 3f 6e e2 34 3f
       0.45678404 0.2621994 0.85034317 0.70658004
000020 58 a1 00 3f 31 35 86 3f ad 5d 2f 3f d9 d7 d0 3e
       0.5024619 1.0484983 0.6850231 0.4078968
000030 e5 58 c8 3e b6 98 ed 3e ef 37 20 3f
       0.3913032 0.46405572 0.6258535

net.1.batch_norm.running_var f4 [15]
000000 e7 72 68 3f b3 7d 23 3f c1 79 f6 3e ec 18 f9 3e
       0.9080033 0.63863677 0.48139766 0.48651826
000010 cc a9 ee 3e cf 29 40 3e c0 21 bc 3f ab a6 81 3f
       0.4661392 0.18765949 1.46978 1.0128988
000020 b0 2a a2 3e 50 99 3b 40 ff 31 32 3f 30 0b 5d 3e
       0.31673193 2.9312325 0.6960754 0.21586299
000030 ed 28 f4 3e 4d f6 1d 3f a2 37 80 3f
       0.47687474 0.6170395 1.0016978

net.2.linear.weight f4 [9, 15]
000000 c9 c2 10 3e dd ca fa 3e 3f ae 2b 3d a7 05 1d be
       0.14136805 0.48982897 0.04191422 -0.15334187
000010 d0 65 42 3e 72 8f 04 be 2f e9 f9 3e 2b 7d 55 3e
       0.18984151 -0.12945345 0.48810717 0.20848529
000020 32 cf 10 bf 7d 32 8e be 7b e9 72 be a9 69 cf 3e
       -0.56566155 -0.27772895 -0.23721878 0.405103
000030 14 07 a8 be c0 8a 9e bc 40 20 9c be 31 ed 5d be
       -0.328179 -0.01935327 -0.30493355 -0.21672513
000040 bb 04 89 be dd fb 1c 3e b6 70 13 be 24 c7 08 bf
       -0.26761422 0.15330453 -0.14398465 -0.53428864
000050 8b f2 9b be e0 35 0f 3d af c5 3f bf a1 92 e4 3e
       -0.30458483 0.03496349 -0.74911016 0.4464312
000060 06 af 92 bd a2 c4 eb bc e3 d1 7c be 00 2d dc 3e
       -0.07162289 -0.028780285 -0.2468944 0.43003082
000070 5b d2 91 3d 6d da 57 3e f3 1d 2c 3e 2d 5d d9 be
       0.071202 0.21079417 0.168083 -0.424539
000080 fb 83 00 3e be 83 32 3d 9c 93 00 be 27 4b 96 be
       0.12550347 0.04358267 -0.12556309 -0.29354212
000090 0a f1 5b bf e0 f4 bd be db d4 ce be 71 5c 9f be
       -0.8591467 -0.37100887 -0.4039677 -0.31125215
0000a0 c6 70 77 3e 9b 87 03 3f 9b 30 cc 3e 8b 64 8d 3e
       0.24164113 0.5137879 0.39880833 0.2761577
0000b0 b7 3b 0c bd d6 55 d5 be 86 de 82 3e 5a b1 c5 3e
       -0.034236636 -0.4166705 0.25560397 0.3861187
0000c0 3c 16 8c 3e 22 00 a1 be fe b6 ae 3e 45 0c 46 3f
       0.27360713 -0.31445414 0.34123987 0.7736247
0000d0 d5 64 51 3f 38 10 75 be 54 0f 47 be 1a e2 55 be
       0.8179448 -0.23931968 -0.19439441 -0.20887032
0000e0 c3 8b 2d 3d 54 d9 11 3f b3 e5 bd be 5e 13 fe be
       0.042369615 0.5697224 -0.3708931 -0.4962415
0000f0 0e 20 d1 bd 5c 19 08 bf 8a ce a2 3e e7 e3 3b bd
       -0.10211192 -0.53163695 0.31798202 -0.04587164
000100 1e 7c 92 be f7 18 03 be 48 df 37 3f aa 03 83 3d
       -0.2861032 -0.12802492 0.71825075 0.06397183
000110 a4 95 86 be 9c eb af 3e d2 e3 8f 3e 02 fa 5a be
       -0.26286042 0.34359443 0.281035 -0.21384433
000120 b6 ea 85 3e e4 5a c6 be 12 f3 5e bf b5 f7 cb 3e
       0.26155633 -0.3874122 -0.87089646 0.39837423
000130 c9 91 da be 8f 20 55 3e 6a 90 6b bd a8 2f 73 bd
       -0.4268935 0.20813201 -0.05751077 -0.05937162
000140 d2 44 1c be 3d 23 9f be 16 44 51 bc 8b 0f b9 3e
       -0.15260628 -0.31081572 -0.012772581 0.3614467
000150 79 4c 96 3e a8 10 20 bf 31 5c da 3e 76 08 c4 3d
       0.2935522 -0.62525415 0.4264846 0.09571926
000160 26 28 3d bc a5 d6 bc be de ef 51 be 97 f1 88 3e
       -0.011545217 -0.3688251 -0.20501658 0.26746818
000170 47 68 14 3d ca 90 58 3e 9b 41 ff 3d 57 1e ce 3d
       0.03623226 0.21148983 0.12463685 0.100643806
000180 cb a4 c6 3e db aa 29 3e a1 5b 82 bc 9a 1a f7 3e
       0.38797602 0.16569082 -0.015912833 0.48262483
000190 1f 99 31 3d ac 97 06 bf e5 5c 6b be f7 a1 5a bd
       0.04335892 -0.5257518 -0.22984655 -0.053377118
0001a0 a7 26 51 be 4d 74 84 3e e5 b0 c4 be 14 31 a2 3e
       -0.20424901 0.2586998 -0.3841621 0.3167807
0001b0 17 fa 06 bf 68 33 c6 be 8e 19 c9 3e a3 20 1d be
       -0.52725357 -0.38711095 0.3927731 -0.15344481
0001c0 df 90 c4 bd b0 9e dd be ea 75 9a be 79 2a 9d 3d
       -0.095979445 -0.4328513 -0.30168086 0.07674117
0001d0 b1 cb 5a be a4 65 29 be 44 82 04 be 80 a3 1c be
       -0.21366765 -0.16542679 -0.12940317 -0.15296745
0001e0 99 82 b2 be 42 93 3a 3e 74 07 f9 be 78 56 5a 3e
       -0.34865263 0.18220237 -0.486385 0.21322048
0001f0 74 c8 0e be 70 29 0c bf 12 9c c3 3d 45 77 cc be
       -0.13943654 -0.5475073 0.095512524 -0.39934745
000200 64 0d 84 bd 77 4e c4 3d 00 d7 96 3d 91 37 01 3f
       -0.064478666 0.095852785 0.07365227 0.5047541
000210 aa ad 89 3e 9b 6f 92 bd 3a a7 da 3c
       0.26890308 -0.07150193 0.026691068

net.2.linear.bias f4 [9]
000000 cc c9 a3 bd e9 ec b2 3c 0b c3 cc bd 83 63 4b 3d
       -0.07997474 0.021841483 -0.09998139 0.04965545
000010 9e 65 31 be bc 2c c9 3b 44 dc ac 3e 42 a9 d8 3e
       -0.1732392 0.006139366 0.337618 0.42316633
000020 13 10 1a 3e
       0.15045194

net.2.batch_norm.weight f4 [9]
000000 9f 1d 5e 3f af 37 50 3f 7c 2d 8e 3f 1e 20 78 3f
       0.8676395 0.81334966 1.1107631 0.96924007
000010 2a a6 60 3f be 14 86 3f 67 9c 84 3f e4 76 8c 3f
       0.87753546 1.047508 1.036023 1.0973783
000020 73 3b 7e 3f
       0.9930946

net.2.batch_norm.bias f4 [9]
000000 29 82 8c 3d f0 03 9c 3e 2e 4b 92 3e 0b 2f f1 bd
       0.068607636 0.30471754 0.28572983 -0.11776551
000010 95 4e 8a 3e 5f 60 8f 3e fd 64 9c be 30 0a aa 3e
       0.27013078 0.28003213 -0.30545798 0.33210897
000020 58 56 82 be
       -0.254565

net.2.batch_norm.running_mean f4 [9]
000000 3a 65 07 3f 09 b0 fa 3e 95 15 04 3f a8 2d 7a 3f
       0.52888834 0.4896243 0.5159543 0.97725916
000010 db 6b 02 3f 4e db 27 3f dd d7 5c 3f 6b 01 7b 3f
       0.50945824 0.6556901 0.8626688 0.9804904
000020 19 75 1f 3f
       0.6228805

net.2.batch_norm.running_var f4 [9]
000000 10 3d 62 3f 89 aa 06 3f 8b d7 7b 3f de 71 20 40
       0.88374424 0.52603966 0.9837577 2.50695
000010 63 68 11 3f 78 69 aa 3f 4f 78 22 3f 4f 34 b2 3f
       0.56799906 1.3313437 0.63464826 1.3922213
000020 b0 ea 01 3f
       0.5074873

net.3.weight f4 [30, 9]
000000 de b9 0b bc 2b 97 8b be 96 16 53 3d 63 31 2f 3e
       -0.008528201 -0.2726377 0.05153521 0.17108683
000010 49 9c 65 be 55 85 98 3c 49 82 8d 3e 31 18 d0 bd
       -0.224229 0.018618265 0.27638462 -0.10160864
000020 d6 d5 66 bd db be 64 3e c3 0d aa bd c7 b1 cc 3e
       -0.056356274 0.2233843 -0.08303406 0.39979383
000030 55 72 b3 be df c7 78 3d 2c 15 6b 3e e1 5b 81 be
       -0.35048166 0.060737487 0.22957295 -0.2526541
000040 9a ea 18 3e 02 e0 e9 be c3 3b f0 bd 59 bb 1e 3e
       0.14933243 -0.45678717 -0.11730149 0.15501155
000050 c9 16 76 3e 0f 29 2f 3e ed 82 f7 b9 2b c1 08 bc
       0.2403213 0.17105506 -0.00047209059 -0.008346836
000060 8f 61 da be 2b 4f ea 3e d2 73 fa 3c ac cc 82 bd
       -0.42652556 0.45763525 0.030572806 -0.06386694
000070 e2 97 54 3e 87 35 95 3e 6a 4c 0d bd 95 9e 09 3e
       0.20761064 0.291424 -0.034496702 0.134394
000080 4e 60 83 bc 3e eb 8b bd f6 c3 bd 3e b4 ee 1b bd
       -0.016037133 -0.06831978 0.3706357 -0.038069442
000090 e9 2f 41 be b8 88 7c bd 69 26 05 3e b8 dc e6 3d
       -0.18865933 -0.061653823 0.13002934 0.112725675
0000a0 f3 4e 13 3e 14 10 a8 3d 3d d1 0a bd 19 78 38 bd
       0.14385585 0.08206192 -0.03389095 -0.04503641
0000b0 b9 45 b1 be 31 20 38 be 01 34 89 3e 35 7f 90 bd
       -0.34623507 -0.1798103 0.26797488 -0.07055513
0000c0 9e 8b 2b 3e 44 e8 50 3e b1 8f a8 bd b5 73 cf 3d
       0.16752478 0.20401102 -0.08230532 0.10129491
0000d0 2f ab 90 3e 22 94 a7 be 9e bb 08 be 9a 7c 00 3e
       0.28255603 -0.32730204 -0.1335282 0.12547532
0000e0 07 f7 b7 3d ae 2c 0e bc 3b 00 79 3e 06 15 d0 bd
       0.089826636 -0.008677645 0.24316494 -0.1016026
0000f0 f5 ac 8a 3e 67 0d 1b 3e c9 a1 9f be 5b 09 84 bc
       0.2708508 0.15141831 -0.3117812 -0.016117742
000100 72 23 c1 bc 1b 58 6f be 4a da 02 3c 87 1e b8 3e
       -0.023576472 -0.23373453 0.0079866145 0.3596079
000110 6c 44 01 3d a5 42 2e be e0 16 2a bd a6 39 bc be
       0.031559393 -0.1701761 -0.04152572 -0.36762732
000120 6d 43 56 3e a8 b7 1a 3e b6 56 a5 bd ec db 0e 3e
       0.20924158 0.15109122 -0.080731794 0.13951081
000130 b2 cd 9c 3d 3e f2 0d be 3b b6 d4 3d 89 7e 3f 3e
       0.07656421 -0.1386194 0.1038632 0.18700613
000140 15 56 0a bc 0d 91 4e be e9 e8 68 3e 55 1b a7 bd
       -0.008443375 -0.2017252 0.22745098 -0.0815951
000150 fe e9 46 3e f7 29 5c 3e f5 af 54 bd 98 4b 64 3e
       0.19425198 0.21500383 -0.05192562 0.22294462
000160 d4 a5 65 bd 62 d4 6f be 9f e5 12 3d 3a cf a7 3c
       -0.05606635 -0.23420861 0.035863515 0.020484556
000170 2b 40 b3 3c 50 d5 49 3e b9 50 37 3e c0 d1 18 bc
       0.021881184 0.19710279 0.17901887 -0.009327352
000180 7b 2e 13 3e 29 b1 80 bc cd d6 a5 3d ff 76 8b 3e
       0.143732 -0.015709477 0.080976106 0.27239224
000190 2a 47 0c be dc 48 d3 bd 30 9f a6 bc d2 a3 20 bd
       -0.13699022 -0.10316631 -0.020339578 -0.03921873
0001a0 f6 ae 49 be ef 86 50 3d d9 de 91 be c3 5e d6 3c
       -0.19695649 0.050909933 -0.28490332 0.026168233
0001b0 d4 b3 b7 3c 41 88 0a 3d ab 7c 73 bd b8 cd a1 3e
       0.022424616 0.033821348 -0.059445065 0.31602263
0001c0 5d ec 43 be 2a b9 6d be f9 92 26 3e 23 c4 7f bd
       -0.19133134 -0.23215166 0.16267003 -0.06244291
0001d0 40 1a db 3d 3d cc 56 3e b9 d5 31 3d f7 14 9c bd
       0.10698366 0.20976348 0.043416712 -0.07621186
0001e0 7c fe 82 3e a6 0d 89 be 40 a8 c1 be 38 81 24 3e
       0.2558478 -0.26768225 -0.37823677 0.16064918
0001f0 bf d2 f8 3d fb fd 74 3e 2b b6 fa bc 18 68 b6 bd
       0.121495716 0.23925011 -0.030604443 -0.08906573
000200 d4 77 4e 3d bc 54 8e 3d cc 85 10 3e f9 32 83 be
       0.050407246 0.069497555 0.1411354 -0.25624827
000210 12 c8 09 3e 70 83 13 be d7 0c 36 3d 0d e4 4b be
       0.13455227 -0.14405608 0.04444584 -0.19911213
000220 88 56 ea bd 85 13 87 be bf 7e 79 3e 3d ac 7e bc
       -0.11442286 -0.2638208 0.24364756 -0.0155439945
000230 ae cc ae be fc 41 00 bd 44 46 ac be ca d1 14 3e
       -0.34140533 -0.031312928 -0.33647358 0.14533153
000240 73 44 7a 3c ba 03 84 be 42 87 9d bc f7 86 48 3c
       0.015275109 -0.25784093 -0.019229535 0.012239209
000250 f8 23 09 3e d9 a5 83 be 8f fe 3c 3e e6 64 73 be
       0.13392627 -0.2571247 0.18456481 -0.23768958
000260 f0 e8 ed 3b 48 10 2d 3e 3c 5a 88 3c d5 61 e3 bd
       0.0072604343 0.16900742 0.01664459 -0.11102644
000270 20 c1 75 3e 39 6f 5e be b7 c7 13 be 40 9e 1b 3d
       0.23999453 -0.21722116 -0.14431654 0.037992716
000280 2a c4 b2 be 32 0f 9b 3d b1 0a 82 bd 7b 74 8f be
       -0.34915286 0.07571258 -0.063496955 -0.28018555
000290 ce a8 cf bd cf 66 d4 3d 71 c7 67 bd 2f 02 ac 3d
       -0.10139619 0.10371172 -0.056586687 0.08398854
0002a0 0d f3 85 3e 58 34 41 bd f3 d5 86 3e ff 14 df bd
       0.26161996 -0.04716906 0.26335105 -0.108926766
0002b0 ca 7c ca bb 8b 39 e1 3d 03 44 b4 bd e5 43 2d 3e
       -0.006179427 0.109973036 -0.08802035 0.16920431
0002c0 65 0c 82 be 41 e5 c2 3e 19 e8 10 be a8 08 3d bd
       -0.2540008 0.38065532 -0.14151038 -0.046150833
0002d0 6c 32 5b be 8a b2 89 be 75 6d 84 bd 99 7d ba 3d
       -0.21405953 -0.26894027 -0.0646619 0.09105987
0002e0 2c a1 24 3e d6 05 19 be 28 5c 02 3e ca 7b 60 be
       0.16077107 -0.14943632 0.12730467 -0.21922222
0002f0 ac ce 16 bd a1 91 0c 3e 5f 4a 05 be 40 0e 49 be
       -0.03681819 0.13727428 -0.13016652 -0.19634342
000300 b6 7e 83 bc 4d 32 95 be ac 82 6b be b4 45 a9 3e
       -0.016051631 -0.2913994 -0.22999066 0.33060992
000310 ea db c9 3d d8 89 bf bd 0d c2 1e be 72 13 c9 be
       0.098563984 -0.093524635 -0.15503712 -0.39272648
000320 79 43 9e bd e7 f8 7b 3e 3c 72 71 be 9e b4 ff 3d
       -0.07727713 0.24606667 -0.23578733 0.12485622
000330 f4 de 42 3e d7 bb a8 be 18 42 8f 3d 75 67 1c 3e
       0.19030362 -0.3295581 0.06995028 0.1527384
000340 de 46 68 be b6 12 7e be 15 3a 20 be c5 4e 85 be
       -0.22683284 -0.24811825 -0.15647157 -0.2603666
000350 cd e6 33 be 3e e8 25 bd a1 b9 69 be a2 05 2c 3e
       -0.17568512 -0.040504687 -0.22824718 0.16799024
000360 a6 4f ee 3d 3e d6 7d be 1f f5 3b be e3 4f 09 be
       0.116362855 -0.24788758 -0.18355225 -0.1340938
000370 70 f7 f8 bd ab 0e e5 bc b0 3f 92 3d cf c4 78 be
       -0.1215657 -0.027961096 0.07141054 -0.24293827
000380 54 c2 8f 3e ad 82 32 3e 80 90 a2 be 3b d5 a6 bd
       0.28077948 0.17432661 -0.3175087 -0.08146139
000390 69 ed 22 bd b1 9b 4d be 14 29 b4 bd 33 1a 70 bd
       -0.039777193 -0.20078923 -0.087968975 -0.058618736
0003a0 5a b1 f6 be 5b c4 4c 3e 09 1c d4 3d 60 a5 0a be
       -0.48182184 0.19996779 0.1035691 -0.13539648
0003b0 e8 87 4b be 4f 35 3c 3d 09 fa 55 be e2 1a c3 be
       -0.19876063 0.045949277 -0.20896162 -0.38106447
0003c0 6d f5 05 3e 2e a9 bc 3d 1f 5e 9f 3e a4 7e e7 ba
       0.13081904 0.09211956 0.31126496 -0.0017661643
0003d0 5a 52 2c be 56 e1 05 3e 54 26 24 be 4b 78 6b 3d
       -0.1682829 0.1307424 -0.16030246 0.057487767
0003e0 8c 4f ad be 8a ee 31 3d 8a 91 cc be d7 f1 9a 3e
       -0.33849752 0.04344038 -0.39954787 0.30262634
0003f0 6f 2b 01 3e a7 28 9e be 9b 52 8f be f0 b9 ab bd
       0.12614225 -0.3089039 -0.2799271 -0.08385074

net.3.bias f4 [30]
000000 8e c5 e3 be 74 a6 8f bd 5e d4 9e 3c 8d 6e 5d bd
       -0.4448666 -0.0701417 0.019388374 -0.054060508
000010 ff 2b bc 3e b0 e1 2c 3e 85 98 74 3e fd 54 a9 bd
       0.36752316 0.16882968 0.23886307 -0.08268163
000020 3d b1 0d bd 88 35 5e bd 6b f5 5c bc 49 aa e4 3d
       -0.034592856 -0.05425027 -0.013486247 0.11165292
000030 ab 61 62 3d b7 d0 65 be 01 d0 25 be 55 64 ab be
       0.055268925 -0.224429 -0.16192628 -0.33474985
000040 54 33 e7 bd 21 4b c2 be da fb a4 be c5 42 9e be
       -0.11289087 -0.37947944 -0.32223397 -0.30910316
000050 96 b9 ba bd 66 01 d5 bc 2c f9 49 3d ba 17 f8 be
       -0.09117429 -0.026001643 0.049309894 -0.48455602
000060 58 3f bd bd bb 8d c7 be 1c 28 f9 be 3a 8b 10 bf
       -0.092405975 -0.3897532 -0.48663414 -0.5646244
000070 4a 47 7b be 37 a9 d0 be
       -0.24538913 -0.407541
