weight_checkpoint_2020-2-3_0-57-38_3wLyV6oRx9ywPdAcftaP.pt (torch_old, 6707 bytes, 20 tensors)

net.0.linear.weight f4 [9, 3]
00000000: b0cb 0c3d 57cc 4bbc f6f3 9b3f be7c 593f
00000010: c8ef f9bd 21cd f83d f4f9 cfbe 7993 953e
00000020: ded8 9d3f 92f5 8d3f d751 cd3f f67b 8f3f
00000030: 8429 c83e 3d57 78be 78d8 ab3f 103f bdbf
00000040: 0d1d 703f badc 4ebe d82a 88bd ce75 15bf
00000050: 9018 93be 0453 653f 81c9 cd3f 0a9d b5bf
00000060: a56f 103f 98fe 4dbf f264 febd
0.03437394 -0.012438855 1.2183826 0.84955966 -0.12203938 0.121485 -0.40620387 0.29214075
1.2331808 1.1090567 1.60406 1.1209705 0.39094174 -0.24252029 1.3425436 -1.478487
0.9379433 -0.20201388 -0.06648797 -0.5838288 -0.28729677 0.89579797 1.6077119 -1.418855
0.56420356 -0.80466604 -0.124215975

net.0.linear.bias f4 [9]
00000000: aaba bb3d 1383 023e a78d f93d a338 3abd
00000010: 44dc 0c3f 3d6a c3be 86c9 633f b148 77bf
00000020: 8646 e5be
0.09166463 0.12745313 0.12185221 -0.04546417 0.550236 -0.3816699 0.88979375 -0.96595293
-0.44780368

net.0.batch_norm.weight f4 [9]
00000000: 82a3 953f a362 693f 4a6f 3a3f 5bd5 5f3f
00000010: 1659 4d3f 193c 863f 6d44 7a3f 468b 333f
00000020: 9171 413f
1.1690524 0.9116613 0.72826064 0.8743493 0.8021406 1.048709 0.9776066 0.7013439
0.75563914

net.0.batch_norm.bias f4 [9]
00000000: 83cf 3f3f 53c7 98be 1cda ca3e 4a52 70be
00000010: c2c4 58bd bf72 d13d 7a08 833e 1dc0 02be
00000020: 3cd6 693d
0.7492601 -0.29839572 0.3961953 -0.23468891 -0.052922018 0.10226964 0.25592405 -0.12768598
0.057089075

net.0.batch_norm.running_mean f4 [9]
00000000: 7a6f b33e 6bc4 8f3e 84c9 c83e c3eb f93e
00000010: df84 303f fdad 823e 61e3 643f 77ba 383e
00000020: d157 913d
0.35045987 0.28079543 0.39216244 0.48812684 0.68952745 0.25523368 0.8940945 0.1803988
0.07096828

net.0.batch_norm.running_var f4 [9]
00000000: 5cb2 3c3e 141e da3d eaaf 733e a82f 0b3f
00000010: 5bc0 db3e f97d 4a3e 39b7 113e 2553 363e
00000020: d2cf dc3c
0.18427414 0.10650268 0.23797575 0.5436959 0.42920193 0.19774617 0.1423005 0.17805155
0.026954565

net.1.linear.weight f4 [15, 9]
00000000: 5a6a 8fbf 9140 3fbd 8f85 c4be 6cfb 913e
00000010: ac45 1bbe 89c4 49bf a9a0 88be 7f6b 183f
00000020: 2440 023f f406 29bf 7a5b b2be 5117 37bf
00000030: edd6 52be d962 4bbe 6522 b33d 4b1c c0bd
00000040: db88 ffbd f396 9bbd 095d 2d3d e605 2fbe
00000050: a321 9a3e 1e06 41bf 4203 523e 7019 77bf
00000060: 5e87 2d3f bab7 dc3e 2e80 293e d138 d23e
00000070: 9688 40bf 48c8 02bf 5748 e4be fc7e 013e
00000080: 50d6 67be 689d 513f de2f ae3e 3b23 85bf
00000090: 2839 083f 7ea4 163f b8ac 95be 1aba 693e
000000a0: eabe 9c3e 32e7 343e a8db 5fbf d72f 273e
000000b0: 3b23 ecbe 9209 e03b 6ea9 18bc 93a4 fc3e
000000c0: 3985 67be 44ce 6a3e 0dcb 413f 1160 283d
000000d0: 3d55 0dbf 2331 373f 8c45 2dbf 8740 90bf
000000e0: 3d9f 643e 2618 133e 362d b7be 933a 1b3f
000000f0: 1a70 f83e 9275 b73e 7626 593e 4f20 e73e
00000100: 78b7 0dbf 075d c63e 53f3 46be 07c3 dabd
00000110: 7ff0 073f 21bc 0c3f 4f95 febe da65 513f
00000120: 29dc acbf 6dfd b6be c0fd 5cbf 507f 4f3e
00000130: ffc5 cabe 24e5 713e 18eb 9abc 3325 ad3e
00000140: fd6f 083f fe44 ee3e 1998 403f 008c afbe
00000150: 7809 9dbe ea4f 123f f425 c13d c92a 223f
00000160: c724 92bd 4ecf f6be f63c 88be c867 1c3e
00000170: 13e3 b33e cd80 eb3f 995b 2d3e 530e 823e
00000180: 6b05 eb3e 0bf6 6abd 6f98 253e 381a 403f
00000190: cc9d 23be 451e 613e acaa 123d 7ff9 403f
000001a0: 511b 913d 8e48 d3be a903 05bf 55e9 053e
000001b0: 6e7a dfbe ae45 8d3e 6282 90bf 9acb 84bf
000001c0: bb9a 543e 3574 ab3e 7231 493f c665 4f3d
000001d0: 6e36 be3e 4d46 dbbf 368d 913c caf1 18be
000001e0: cf57 a4bd 1d1b a1bc 6ec6 41bd 7c5e 193b
000001f0: cecc 87be ac33 afbd 0f19 3ebf b643 0e3f
00000200: eaf6 4e3f 3a5b b83e 7c56 e8bb 478c 7abf
00000210: 8511 51bf 9113 d03e 1703 60bf
-1.1204331 -0.046692435 -0.38383147 0.28512132 -0.15163296 -0.78815514 -0.26685074 0.59539026
0.5087912 -0.66026235 -0.34835416 -0.71519953 -0.205898 -0.19861926 0.087467946 -0.093803965
-0.12477275 -0.07597151 0.042325053 -0.17092094 0.30103788 -0.7539996 0.20509055 -0.9652319
0.6778468 0.43108922 0.16552803 0.41058972 -0.75208414 -0.51086855 -0.4458644 0.12646097
-0.22640347 0.8188081 0.34020895 -1.0401376 0.53212214 0.58844745 -0.29233336 0.22824898
0.30614406 0.17666319 -0.87444544 0.16326843 -0.4612063 0.0068370784 -0.009317739 0.4934431
-0.22609414 0.22930247 0.75700456 0.04110724 -0.5520819 0.7155935 -0.67684245 -1.1269692
0.2232637 0.1436468 -0.3577668 0.6063625 0.48523027 0.35831887 0.21206078 0.45141837
-0.55358076 0.3874285 -0.19428758 -0.1068173 0.5310134 0.5497456 -0.49723288 0.8179604
-1.3504688 -0.35740224 -0.8632469 0.2026341 -0.39604184 0.23622566 -0.01891093 0.33817443
0.5329588 0.46537012 0.7523208 -0.342865 -0.30671287 0.5715319 0.09431067 0.63346535
-0.07135921 -0.48205036 -0.2660901 0.15273964 0.3513418 1.8398682 0.16929473 0.25401554
0.4590257 -0.05736355 0.1617143 0.75040007 -0.15978163 0.21984203 0.035807297 0.753807
0.07085288 -0.41266292 -0.5195871 0.1307729 -0.43648094 0.27592224 -1.128979 -1.0374634
0.2076215 0.33487096 0.7859107 0.050634168 0.37150902 -1.7130829 0.01776753 -0.14935985
-0.08024561 -0.019666249 -0.047308378 0.0023402264 -0.2652344 -0.085547775 -0.74256986 0.5557207
0.8084551 0.360071 -0.007090388 -0.97870296 -0.8166736 0.40639928 -0.87504715

net.1.linear.bias f4 [15]
00000000: 640e b9be 9ca4 0c3e fceb 153f 83ff b6be
00000010: a290 58be b022 6abf 63b5 cd3d e846 11bf
00000020: 5c57 0d3f 0d54 88bf 2766 c1bf 5965 2f3f
00000030: 2f00 a13e 9a2f 793e 4363 863e
-0.36143792 0.13734668 0.5856321 -0.35741815 -0.21148923 -0.9145918 0.100443624 -0.5674882
0.55211425 -1.065065 -1.51093 0.6851402 0.31445453 0.24334565 0.26247606

net.1.batch_norm.weight f4 [15]
00000000: fe5c 913f 65d7 4a3f a4a6 533f 0644 7e3f
00000010: ce61 9a3f cfdc 723f 510a 243f c606 6e3f
00000020: 890b 5d3f 69ce 643f 9a96 8c3f 290c 993f
00000030: 815e 3f3f 922a 5a3f 2bb2 b83f
1.1356504 0.79234916 0.8267615 0.99322546 1.2061098 0.9486818 0.6407824 0.92979085
0.86345726 0.89377457 1.098346 1.1956836 0.74753577 0.8522121 1.4429373

net.1.batch_norm.bias f4 [15]
00000000: 1836 06be 0461 2a3e eaed d93d f93e dbbc
00000010: fce1 55be e9e9 0b3d 6a27 943e a78b 59bd
00000020: 7ba3 1e3d 6b51 87be 5907 10be bbde 0d3f
00000030: 3a77 a03e 75b9 14be 6a63 7b3d
-0.13106573 0.16638571 0.10641082 -0.026763426 -0.20886987 0.03415862 0.2893632 -0.0531117
0.038730126 -0.26429304 -0.14065303 0.55417985 0.31340963 -0.14523871 0.061374106

net.1.batch_norm.running_mean f4 [15]
00000000: c742 353e 00f0 cb3e 0df2 a73f fe35 423f
00000010: 6087 103f 150b 9b3e 8014 633f 42e5 5d3f
00000020: c703 3c3f 72c2 223e ffd3 0f3e 6804 c23f
00000030: 6bfa 843f d3e7 9c3e 5e69 fe3e
0.17701255 0.39831543 1.3120743 0.75863636 0.56456566 0.30281892 0.88703156 0.86677945
0.73443264 0.15894488 0.14045714 1.5157595 1.0388921 0.30645618 0.49689764

net.1.batch_norm.running_var f4 [15]
00000000: 995b 5c3e 78c0 7a3e e6cc 993f 7aa3 483f
00000010: bb4f 803f 03ff be3e 46b1 983f 39b7 4a3f
00000020: 3e8d 273f 2eb9 303e e112 8a3e 32db 4440
00000030: 4d2b b23f f09d f13d 6215 683f
0.21519317 0.24487484 1.2015655 0.78374445 1.0024332 0.37303934 1.19291 0.79185826
0.65449893 0.1725814 0.26967528 3.0758786 1.3919464 0.11797702 0.9065763

net.2.linear.weight f4 [9, 15]
00000000: c81e c3be bebf af3e 3c2f ba3e 53dc 453e
00000010: 2db8 da3d 43cb 64bf 0c27 173f 2ea4 72bd
00000020: 1936 ee3e f27e 90be 200c 463f 56e7 743e
00000030: ba1e 57be 985b 46bc 0dfb b7be a449 2dbe
00000040: 35ad db3e 26b2 13bf 6e38 d6be 9111 08be
00000050: 5274 a6bd 14bf a43e 994d 8ebe 77e6 003f
00000060: c785 65bd f8bc 70be bffd 1cbf 8c46 0d3f
00000070: 6ccb 3e3f 32fc 08be 2193 113f 92cb 2bbf
00000080: 303c 82bf 93fd e5be 8e1e 4d3f c385 673e
00000090: 1fde 1cbe e3d6 873e 7caa dcbe 1aef 39bf
000000a0: e296 bc3e 2093 623e 63de 7fbf db8b e7be
000000b0: 8cd0 1b3f 3972 d83e 44bd 66bf 614a 633f
000000c0: a8cb 133e d3fb f9bd 7299 9abe 0d90 95be
000000d0: 7a7c 813e 6853 e33e d464 433d 5437 22be
000000e0: 8184 be3d 5c11 9a3d 6773 f8bd 15ec 0dbd
000000f0: 5fa2 2bbe 335b 1d3f 2685 0d3e 3b47 fbbd
00000100: 3e63 05bf 0f4f 39bf d970 4cbd d4a1 b7be
00000110: 9ac5 c1bb 6330 eebe f409 05bf 0080 8ebe
00000120: eafe 32be c576 783e 5f86 69bf 78fb 04bf
00000130: 044b a93d 66f4 1bbd 6d51 0f3f 63f6 04be
00000140: 7dbe 5bbf 60a9 b2bc 038c 8bbe f3e0 a1bd
00000150: 23ed 93be 9b3a 37be d4ce 4dbe 7f32 5c3e
00000160: 872c e53e d8b6 01bf 7d52 31be 0845 23bf
00000170: 8308 32be d2b7 7fbe b13e 3b3f 4dc2 193f
00000180: 09ee fc3c 2ceb 9b3e 06b1 dfbe c50c efbd
00000190: 1f5c 513f 0e68 e23e 4dee 9c3c b329 0fbe
000001a0: cf9a 363f 9440 86bd c742 ddbc a7dc c13e
000001b0: a93a f53d 6c86 aebd c945 aebe 3a0f 8ebd
000001c0: be0d 87bf 9709 933e 5e7f 6dbd 3505 8cbd
000001d0: 3a61 82bf 353b af3e 90e4 d23e 041c 11bf
000001e0: 6670 493d 6225 5b3e 94df debe fe5d e2bd
000001f0: a840 2cbe e814 c6bd 3b48 e83d 3eaf c5be
00000200: b81f 7e3f 0058 54bd 67d0 6bbe cf2c 94bf
00000210: 2c2f dbbd f523 c9bd 026b 513e
-0.38109422 0.34325975 0.36364162 0.19322328 0.1067966 -0.8937265 0.59043956 -0.059238605
0.46525648 -0.28221852 0.7736225 0.23916373 -0.21007815 -0.012106799 -0.35933724 -0.16922623
0.42905584 -0.5769371 -0.41839927 -0.13287951 -0.08127655 0.3217703 -0.27793577 0.5035166
-0.056035783 -0.23509586 -0.61324686 0.5518577 0.7452915 -0.13377455 0.56865126 -0.671075
-1.0174618 -0.44920024 0.8012475 0.2260962 -0.15319107 0.26531133 -0.4309882 -0.72630465
0.36833864 0.22126436 -0.9994871 -0.4522389 0.6086509 0.42274645 -0.90132546 0.8878537
0.14433157 -0.12206235 -0.30195194 -0.29211465 0.2529028 0.4439957 0.04770358 -0.15841419
0.09302617 0.07522842 -0.12131386 -0.034648973 -0.16761158 0.61467284 0.13820323 -0.122694455
-0.52104557 -0.7238626 -0.049912307 -0.35865653 -0.0059134485 -0.4652129 -0.5196831 -0.2783203
-0.17480054 0.24264057 -0.9122066 -0.5194621 0.08266261 -0.038074873 0.5598362 -0.12984614
-0.8583754 -0.02180928 -0.27255258 -0.07904234 -0.28891858 -0.1789345 -0.2009843 0.21503638
0.44760534 -0.5066962 -0.17316623 -0.6377721 -0.1738606 -0.24972466 0.73142534 0.60062104
0.030875223 0.3045286 -0.43689746 -0.116723575 0.8178119 0.44220012 0.0191566 -0.1398075
0.7132997 -0.06555286 -0.027009381 0.37863657 0.11974079 -0.08521733 -0.34037617 -0.06936498
-1.0551069 0.28718254 -0.057982795 -0.06836931 -1.0185921 0.3422486 0.41190004 -0.56683373
0.049179457 0.21400979 -0.43529952 -0.11053084 -0.1682154 -0.09671956 0.11341902 -0.38610262
0.9926715 -0.051841736 -0.23028718 -1.1576174 -0.10702357 -0.098213114 0.20450976

net.2.linear.bias f4 [9]
00000000: 08b3 523f a3e0 c73e c05a d93d 278c 3e3f
00000010: 5964 b13f 0f03 f23e f814 f43c 69f6 053e
00000020: 8407 763e
0.8230443 0.39038572 0.10613012 0.74432606 1.3858749 0.4726796 0.029795155 0.1308228
0.24026304

net.2.batch_norm.weight f4 [9]
00000000: 68ee 813f 28c1 913f a804 ad3f d6fb 683f
00000010: f24f 983f b5f4 e13f ca94 ba3f 5d1f a93f
00000020: cb34 753f
1.0150881 1.1387072 1.3517046 0.9100927 1.1899397 1.7652804 1.4576657 1.3212696
0.9578368

net.2.batch_norm.bias f4 [9]
00000000: 1822 df3e 3aff febd 2072 4d3f 200f c5be
00000010: 0442 07bf 0300 a2be 25f4 00bf 6c19 353f
00000020: efec cabe
0.435807 -0.12451024 0.80252266 -0.38488102 -0.52835107 -0.31640634 -0.50372535 0.70741916
-0.3963389

net.2.batch_norm.running_mean f4 [9]
00000000: b305 a83f 98c5 a93f dd5f cc3f 243a 793f
00000010: 4c7d 0640 8b76 953f 84c3 a93f 6634 843f
00000020: dfae 813f
1.3126739 1.3263426 1.5966755 0.9735434 2.1013975 1.1676801 1.3262792 1.0328491
1.0131491

net.2.batch_norm.running_var f4 [9]
00000000: 5c70 af3f 3546 1140 b3f5 ee40 3293 a53f
00000010: f1aa 3c40 10c6 d53f be88 db40 a430 c93f
00000020: b53c c73f
1.3706164 2.26991 7.4674926 1.2935545 2.9479334 1.6701069 6.860442 1.5717969
1.5565401

net.3.weight f4 [30, 9]
00000000: 2a11 9cbf 9dd6 2cbe bc7b a8bf 7687 393f
00000010: fe45 2a3f e96b b53d aa8f ad3f e204 ccbf
00000020: 5b2d 473f 4968 09bd 9571 febe aadf b33e
00000030: 74d1 92be e925 c3be d4f8 e9be f7f1 1b3f
00000040: 656c f4be 56f4 f8be 8659 3bbe 2f24 11bf
00000050: 01fd a63e ddae f5bd 6f68 cfbe 2952 d4be
00000060: 5b7d fd3e fc80 00bf 8984 dbbe 761a b3be
00000070: 43f4 dbbe fdfe a13e 0290 3c3b d203 d5be
00000080: 472b c6be c6b9 d23e 67ef 97be 29b6 ecbe
00000090: 990a d6be d461 07bf 18dc 823e af0a 1b3e
000000a0: 1d4e e0be acbf bcbe ae46 953e a7dd d5be
000000b0: 2184 34be ed52 fbbe 6a8a dabe aa85 af3e
000000c0: 4760 313e 3109 b6be 8a78 c6be 81f5 503e
000000d0: 72e8 c2be 596f 36bd cd4a d2be c37e a9be
000000e0: 802e 1d3e 4ae8 d73d 0feb e1be 1a42 dfbe
000000f0: d19a 003e 4c45 b2be 9af6 3ebe f573 dbbe
00000100: 918e 35be 2a80 323e e233 1f3e 3de6 dbbe
00000110: 0d9c f0be 120a ae3b a79a 07bf bf5f 84bd
00000120: fbaf c5be 0ded 80be 9b80 f73d 9ae3 933e
00000130: f034 c1be 6af4 13bf f83d 55bd 9a39 97be
00000140: f495 213c d02b c1be b1fe 9dbe 6957 293e
00000150: 6973 4e3e eca0 cdbe 10c7 d6be 22ce c0bd
00000160: 3045 e9be 1ec6 42bd 97d1 8bbe 5972 56be
00000170: 6f2b 88be f4ca c03e f0ce c9be 39af 16bf
00000180: 3eb7 a6bd da84 a6be 9358 d93d c1c6 70be
00000190: c4e0 4f3b 45bb 99bd 1d5e fd3e c448 88be
000001a0: 55ca babe 173c 93bd be8e 9dbe 894a 22be
000001b0: 161f 9cbe 447d 92bc cfac a1be 8e00 853e
000001c0: 5aa5 94be 8ad6 0bbf 37e3 59bd 4406 9cbe
000001d0: 1e87 41bb 7a38 bebe 8881 78bd 15f8 90be
000001e0: b6ce ae3e 83f0 6dbe 2c34 edbe 9a26 28be
000001f0: af39 8abe fcdb 10be 4d15 66be b0cb 0b3d
00000200: 3492 8cbe 8ce1 293e 8ceb 25be 1855 f9be
00000210: 455f d1bd 447f acbe 47c0 2bbe 896f 7fbe
00000220: c5dd 863d 81f3 e1be 62fb 333e 37fc 22be
00000230: 8019 1ebf 2330 18be 024a adbe c084 27bd
00000240: 70e1 b6be da4b 363e 54b4 50bf 630e 0e3f
00000250: a7bb b73c 04fb e6be 034d 0d3e 3836 85be
00000260: 9056 ecbd cb41 9abe b496 bd3c 5b7d 0dbf
00000270: 852f 313e 20a4 06be 73af 13bf 29ba c6bd
00000280: df5b 8ebe 23ad 043d 57bd 35be 86a6 843d
00000290: d221 e1be f046 bc3d 5bef f2bd 5668 ccbe
000002a0: 7515 bd3c bac7 30be 882e 563c e728 37be
000002b0: aea9 20be fd83 4abf 15ad 5a3e 749f 673e
000002c0: 7b2a 17bf 2e01 c2bb 4597 aabe 44c4 9d3e
000002d0: f37d aebd 8697 b1bc f103 08bf 58ce ec3e
000002e0: 142e fd3d 9fbb 9dbe e453 4e3e 45c7 9abe
000002f0: 7748 c13d 3b23 9dbd 8460 023e 7df1 55bf
00000300: 2b54 a73e 7d52 51be 10e0 62be e48d 0a3e
00000310: 57d1 04bf 09dd 163e 4d3a 80be 1a98 323d
00000320: 6ac0 3cbf 29ff 7a3e 87bf 46bb 8728 eabd
00000330: 3ace a63e bb70 5bbe 7755 1dbe 957c 9cbd
00000340: fbb3 03bc 7870 67bf 5ab0 b53d 019e 433e
00000350: 1b6f 95be 021f 443e 866c 08bf 3441 6f3d
00000360: b829 06be c8d7 92bc 036e 26bf eb96 9a3d
00000370: 87aa 623d cb1b b53d 05ee ee3e 2c31 c6be
00000380: bd1f 0d3d 496c 9abe 0e49 453e 856a 60bf
00000390: ca43 a13d dcb7 a03e cc7c 73be 1fdc f23e
000003a0: 27c4 cdbe 238a 383e 2854 b6bb de27 0bbd
000003b0: 9e99 76bf 7d75 e13e 4eb9 793d 01fd 13be
000003c0: 113e 693e f924 72be c92b f03d 1f40 a6be
000003d0: ad30 053e c518 4fbf 5c68 693d 7ad2 903e
000003e0: 25cb 013d 4bcd 1e3f 0807 c8be 163b 803e
000003f0: 8ed7 12be f817 5fbd bc5e 36bf c7cc 9a3d
-1.2192738 -0.16878743 -1.3162761 0.7247232 0.6651305 0.08858473 1.3559468 -1.593899
0.7780358 -0.03354672 -0.4969603 0.3513158 -0.28675425 -0.3811486 -0.45697653 0.60916084
-0.47738948 -0.48623914 -0.18295869 -0.56695837 0.32614902 -0.11996243 -0.40509364 -0.41468933
0.495097 -0.50196815 -0.42874554 -0.34981126 -0.42959794 0.31639853 0.0028772359 -0.41604477
-0.38704893 0.4115736 -0.29674837 -0.46232727 -0.4180496 -0.5288365 0.25558543 0.15140794
-0.43809596 -0.36864984 0.29155487 -0.4177067 -0.17628528 -0.49086705 -0.42683727 0.34281665
0.17321883 -0.35553887 -0.3876384 0.20406152 -0.38067967 -0.044539783 -0.41072693 -0.33104524
0.1534977 0.105423525 -0.44124648 -0.4360512 0.12559058 -0.34818494 -0.18648759 -0.42861906
-0.17730166 0.17431703 0.15547135 -0.42949095 -0.46994057 0.005311259 -0.52970356 -0.064635746
-0.38610825 -0.25180855 0.120850764 0.28884584 -0.377357 -0.5779482 -0.05206105 -0.29536134
0.009862412 -0.3772874 -0.30858377 0.1653725 0.20161213 -0.40161836 -0.41948748 -0.09414317
-0.45560598 -0.04755222 -0.27308342 -0.20942058 -0.26595637 0.3765484 -0.39415693 -0.5886112
-0.081404194 -0.32523233 0.10612597 -0.23513319 0.0031719664 -0.07506422 0.49485865 -0.26618016
-0.36482492 -0.071891956 -0.30772966 -0.15848745 -0.30492467 -0.017881997 -0.31577155 0.25976986
-0.29032403 -0.54624236 -0.053195205 -0.3047353 -0.002953 -0.37152463 -0.060670406 -0.28314272
0.34142083 -0.23236279 -0.46328866 -0.16420975 -0.26997134 -0.14146417 -0.22469063 0.0341298
-0.27455294 0.16589946 -0.16203135 -0.48697734 -0.10223249 -0.33690846 -0.16772567 -0.24944891
0.06585268 -0.4413109 0.17576364 -0.15916525 -0.6175766 -0.14862113 -0.33845526 -0.040898085
-0.3571887 0.17802373 -0.8152516 0.554907 0.022428347 -0.45113385 0.13798909 -0.26017928
-0.11539948 -0.3012832 0.02314315 -0.552694 0.17303284 -0.13148546 -0.5768959 -0.09703476
-0.27804467 0.03239168 -0.17748009 0.06477074 -0.43971115 0.09193218 -0.1186206 -0.39923352
0.02308152 -0.1726369 0.013072617 -0.17886697 -0.15689728 -0.7910765 0.21355088 0.2261942
-0.59049195 -0.005920551 -0.33318534 0.308138 -0.08520117 -0.021678697 -0.53131014 0.46251178
0.12362304 -0.30807206 0.20149189 -0.30230156 0.0943765 -0.07672735 0.1273213 -0.83571607
0.32681403 -0.20441623 -0.22155786 0.1353069 -0.5188193 0.14732756 -0.2504448 0.043602087
-0.737311 0.24511398 -0.0030326562 -0.11433511 0.32579213 -0.21429722 -0.15364634 -0.0764095
-0.008038516 -0.9040599 0.08871527 0.19103242 -0.2918633 0.19152454 -0.53290594 0.058411792
-0.13101852 -0.017925158 -0.65011615 0.075483166 0.05533841 0.08843192 0.4666597 -0.3870939
0.034454096 -0.3016074 0.1926615 -0.87662536 0.07874258 0.31390274 -0.23778075 0.47433564
-0.40188715 0.18021445 -0.0055642314 -0.033973567 -0.9632815 0.4403495 0.060967736 -0.14451982
0.22777583 -0.23646916 0.11727101 -0.32470796 0.1300685 -0.8089717 0.05698429 0.2828558
0.031687874 0.62032 -0.39067864 0.2504508 -0.1434004 -0.054466218 -0.71238303 0.075585894

net.3.bias f4 [30]
00000000: 3986 60bf 2de6 51bd 2b06 9abd 544f d03c
00000010: 1fbe 983e 52f1 b63e 74f0 253e 427b 893e
00000020: 88ac 773c d33c 20ba 99e0 923d 5fee 34bd
00000030: 2882 0cbe 3f30 5abe bbe1 63be 5d3c d9be
00000040: 1bff cabe 3942 bebe 992e 23bf 8e5c e7be
00000050: 7893 48bf e3a8 25bf 1ca5 6fbf 26d5 0ebf
00000060: 5763 8dbf 70eb 23bf 83d7 77bf faaf 6cbf
00000070: 65c3 91bf c306 85bf
-0.8770481 -0.051244903 -0.07520708 0.025428452 0.2983255 0.35730988 0.16205007 0.2685185
0.015116818 -0.0006112579 0.07171745 -0.04417264 -0.13721526 -0.21307467 -0.22254078 -0.42428866
-0.39647755 -0.371599 -0.6374298 -0.451878 -0.7835002 -0.64710826 -0.9361131 -0.5579399
-1.1045941 -0.64031124 -0.9681322 -0.9245602 -1.1387755 -1.0392689
